model/model.pth (torch, 17216 bytes, 4 tensors)

linear1.weight f4 [256, 11]
00000000: 65cd 3fbe ce4d c9bc 75f1 b9be 30a3 003e
00000010: 57de c03d 5b7b f7be 4462 81bd 561b b03d
00000020: ab2d 823e 6d48 8dbe bba1 c2bd 17f8 83be
00000030: 4478 ea3e 90af 8b3e f907 3cbd 7efb 8d3d
00000040: cb15 6f3d 4a00 dcbd 900b 183e b27a 613e
00000050: a0e4 193e 234c 983e 67cb aa3d cb86 ce3e
00000060: e3d3 a3bd 1d12 94be 69fc cc3e ab6f 0cbe
00000070: 75c2 363e 1531 893b 7d53 35be b498 b53e
00000080: 66e3 33be f58c 99bd 8240 2ebe ca01 69be
00000090: e49a 2abe 6a4f 82be d3d5 20be ea58 38be
000000a0: 6eed 683e 68c3 05be 3a78 013e 58da 0c3d
000000b0: 5b6f 51be 3a08 09be 8998 b5bd 3db5 60be
000000c0: 23f5 d43e c8b0 9d3d 3556 d9bd 82b3 35be
000000d0: 1d06 bbbe d7c6 763c 1b06 2b3e 7ff0 583e
000000e0: 44fb 0ebe 33da 70bd 4d3d b1be 0ae2 b4be
000000f0: de02 ad3e 8838 1d3d 590a af3e 9ded ad3e
00000100: 38a7 b5be 6adf 4a3e e1fb 0cbe 152a 82be
00000110: cc20 f03e 53fd 393d c808 89bb cdde 3abd
00000120: d6a6 0fbe 6113 c23a fab4 e03d 838d 483e
00000130: 6d1a 503e b146 53be 4ce6 043f 750f 383e
00000140: b8e9 4bbd 9d01 3fbe 34f6 313d 2eae 82bd
00000150: 735f a1be 4937 333e 768f 4cbd 9705 853d
00000160: 777a 33be 8ed9 17be 1c67 84be 77e7 eebb
00000170: 12ab 3a3e 4436 bcbc fe01 02be cd5a 3abe
00000180: 7f93 86be de19 c4bc 29a7 61bc 65d1 00bf
00000190: 02db 2f3e 3500 003f 83d5 533e 4a36 f73b
000001a0: 0df3 90bd 05d4 793e 7e26 3dbd 18e4 d73d
000001b0: 8742 323e ab54 333d 2c5b 513e 940e 68be
000001c0: df24 13be bd47 c9bd b5cc af3e 5cdb 6ebe
000001d0: 614e 4cbe cf8b c8be 2bd1 5a3e 7397 76be
000001e0: 57aa 9ebe 9168 df3e b9e0 173f 6ba2 d43e
000001f0: 3983 093e d816 153e cbc5 6a3e dd3d 8d3e
00000200: 34c2 663e e142 073e 3b1d 3c3e d3b3 303d
00000210: 883a dbbe 8a62 f53e ede5 8b3e 899b 553e
00000220: 0ddc b63e 8195 bfbe af17 f1bb bea0 063e
00000230: 3f27 283e e7c6 83be ebc1 a1bc 524b 70bd
00000240: 5c07 103f e8ec 203e d6e2 b93d 3752 063e
00000250: 583e b1be 778c fbbd c311 883e cfec 7d3e
00000260: f507 59be 95a1 7cbe 1962 2fbb f740 e9bc
00000270: e364 0f3f 742e 5bbe 36d4 9ebe 017f bbbd
00000280: bf4d 10bd 661d 93bd 9de3 b7bd 996b ac3e
00000290: 4fc5 a23e 7363 813d c974 7dbd cce0 0a3f
000002a0: de00 703e e18f 83bd cdf7 093d 4133 73be
000002b0: 141b e5bd 1af8 503e e52a 49be 6ab9 90be
000002c0: 8ea6 e03e d14d a6be 75f0 d33d 787b a43d
000002d0: 97e7 60be aa6a cbbd 106d 5f3e 0344 8a3e
000002e0: cd44 c33e 3be9 b03e 55e8 a1bc 28f5 f8be
000002f0: a3dc 2fbe 6a8c d13e bf55 a8bd bb83 02be
00000300: c3c4 233e 5a9a 673e 8d5d a93d 021d 82bd
00000310: e56e 5b3e b92f 813e e19e 743c d233 a0be
00000320: f18d ab3e 883d 963e 1709 b6be 874c 3fbd
00000330: ee6a 093c 300c 5e3e 406d 8d3e a050 833e
00000340: c4b2 27be db3b b33e 7285 ed3d c4a6 8f3e
00000350: 269e 5e3e ea7e 4f3e 685f 423e 9e49 fc3c
00000360: 2449 e73d fe81 873e b03e f63d 0ce2 933e
00000370: 63e4 643e 4f8a c4be ef3c 0c3f 2bca 33be
00000380: ae8e 35be 849d 9ebd 014c 353e 2ea5 723d
00000390: 66aa 573e 5d9d dc3d 278e ce3d f56a 1fbd
000003a0: 9d2a 9f3e 0d9b af3d 37b3 73be d692 92bc
000003b0: 3a88 bf3d bd72 453e 84c1 19be d9a6 83be
000003c0: 653b 5a3e 891d 35bd 658f 89be 5a1a 8b3e
000003d0: 047a a53d f2e5 92be 0d5b aa3d e501 f33b
000003e0: 57d8 073b 9252 b9be bd91 77bd da4e 873e
000003f0: ee83 ab3d 127e 23be 98ae 6ebd aa9a 89bd
-0.18730696 -0.024573233 -0.3631703 0.12562251 0.09417408 -0.483363 -0.06317571 0.08598964
0.25425467 -0.2759432 -0.09503504 -0.25775215 0.4579488 0.2728238 -0.04590604 0.06932734
0.058370393 -0.10742243 0.1484816 0.22019461 0.1502862 0.29745588 0.08339577 0.40337214
-0.079993986 -0.2892007 0.40036324 -0.13714473 0.17847617 0.0041867592 -0.1770763 0.35468066
-0.17567214 -0.074975885 -0.17016795 -0.22754589 -0.16660649 -0.25451213 -0.15706567 -0.18002668
0.22746822 -0.13062823 0.12643519 0.034387916 -0.20452635 -0.13382044 -0.088669844 -0.21944137
0.41593274 0.07699734 -0.10612146 -0.17744258 -0.36528102 0.015062056 0.16701548 0.21185492
-0.13963038 -0.05880184 -0.3461708 -0.35328704 0.3379125 0.03838399 0.34187582 0.33970347
-0.3547914 0.19811788 -0.13767959 -0.2542273 0.46900022 0.045407604 -0.004181955 -0.045622636
-0.14028487 0.0014806801 0.109720185 0.19585232 0.2032258 -0.20632435 0.51913905 0.17974646
-0.04978344 -0.18652959 0.04344769 -0.063808784 -0.31518134 0.17501558 -0.049941503 0.06495207
-0.17527185 -0.14829084 -0.25859916 -0.0072907764 0.1822932 -0.022975095 -0.12696072 -0.181987
-0.26284406 -0.023938116 -0.013772764 -0.5031951 0.17173389 0.50000316 0.20686917 0.0075443136
-0.07077608 0.24397285 -0.046179287 0.10541552 0.1740819 0.043781918 0.20444936 -0.22661811
-0.14369534 -0.09828136 0.34335867 -0.23325866 -0.19951774 -0.39169165 0.21368854 -0.24081211
-0.30989334 0.43634465 0.59327275 0.41530165 0.13428964 0.14559495 0.22927015 0.2758626
0.2253502 0.13209106 0.18370526 0.043140244 -0.42818093 0.47926742 0.27323857 0.20860113
0.3571476 -0.3741875 -0.0073575596 0.13147256 0.16421221 -0.25737688 -0.019745788 -0.05866558
0.5626123 0.15715373 0.09076469 0.131173 -0.34617877 -0.12282651 0.2657605 0.24797367
-0.21194442 -0.24671014 -0.0026761352 -0.02847336 0.56013316 -0.21404439 -0.3102128 -0.091550834
-0.035230394 -0.07183342 -0.08978961 0.3367584 0.3179116 0.063177966 -0.061878953 0.5424926
0.23437831 -0.06423927 0.033683587 -0.2375002 -0.11186805 0.20407143 -0.19645269 -0.2826646
0.4387707 -0.32481244 0.10348598 0.08031362 -0.21963345 -0.09932454 0.21818948 0.27005014
0.38138428 0.3455294 -0.019764105 -0.4862454 -0.1717401 0.4092744 -0.0821948 -0.12745564
0.15993027 0.22617474 0.082697965 -0.06353189 0.21429022 0.25231722 0.014930458 -0.31289536
0.3350673 0.2934382 -0.3555381 -0.04670384 0.00838731 0.21684337 0.27622414 0.2564745
-0.16376787 0.35006604 0.11597718 0.2805692 0.21740016 0.20263258 0.18981707 0.030796822
0.11293247 0.26466364 0.120236754 0.28883398 0.22352748 -0.3838677 0.5478048 -0.1755759
-0.17730209 -0.077448875 0.17704774 0.05923956 0.21061096 0.10772202 0.10085707 -0.03892036
0.310872 0.085744955 -0.23798834 -0.017892282 0.09352155 0.1928205 -0.15015227 -0.25713232
0.2131172 -0.04421762 -0.26867214 0.27168542 0.08079913 -0.2869106 0.08318148 0.0074159973
0.0020728314 -0.3619581 -0.06044172 0.26427346 0.08374773 -0.15966061 -0.058271974 -0.06718953

linear1.bias f4 [256]
00000000: cf21 7e3e ed39 3bbd 41ce 61be 17b2 7cbe
00000010: d598 8fbd 456e eeba e349 123d 72cd f93d
00000020: c03a 88be d8e6 5d3e dd4a 69bd 9ca3 b4bc
00000030: 5c3c 0dbe a6b6 ef3d a5a9 b63c 433d 813d
00000040: a19d 54be 48df 3dbe e1ba 59be b709 aebe
00000050: 9b1b 193e 4212 4a3d 5149 35be 7323 7fbe
00000060: caee bf3d b815 9d3e df35 9ebe 6cdd 96bb
00000070: a98f 15be add1 4abe f76d f4bd 7f7d 153e
00000080: 81ad 183e d3dd 8f3c 02d1 5cbe 0811 ccbc
00000090: e030 0fbe 1144 aebc 212d 393e 5cf8 d03c
000000a0: c3f9 49be f57e 15be 1f7c 07be 844c 953d
000000b0: 598d 2a3e 5d42 1e3c 6360 e6bd a93f 1bbe
000000c0: 1b9e 533e 42f9 dfbd 1c56 12be 7825 b0bd
000000d0: fa7d 17be a408 9f3d 4a59 83be 4d43 183e
000000e0: 9e26 853e 6837 63be 7403 fb3d eb7d 013e
000000f0: e75e 8f3e 3837 d5bd 14a3 69bc 5324 33be
00000100: 6df8 623c d942 a53d 88d0 0e3e 9d6b 9fbd
00000110: a001 3fbe 0de4 1ebc b0b9 0abe 5ef3 9b3d
00000120: be33 103e f423 d43c 736d 72be 8fc3 4abe
00000130: 4e94 3fbc da0e 873e c4b0 aa3d 11a6 233e
00000140: 1801 06bd d215 da3d 2d58 843e c666 97be
00000150: a727 2bbe d6ef b13d 0deb 3f3d a49a b1bd
00000160: 53eb c73d 7aac 1ebe b2ee 3ebe cc24 953d
00000170: f833 9cbd dbf5 dcbd 04d2 003d 7631 1fbd
00000180: b83c 70bc c0d6 7dbd c7e1 7a3e 3a76 12be
00000190: 0430 5e3e 4324 0f3e ce7d 013e d4eb 223d
000001a0: 6df7 02be 4ad5 f2bc 083b 4fbe 0164 953e
000001b0: df79 123e 0e1d aebd 566d bdbd d61c c83d
000001c0: 16ce a53e b1d9 41be a974 61be 9c03 58bd
000001d0: c989 21be da38 54be cda7 56be e56f 953c
000001e0: 2f27 573e d95b 2a3e 881a cdbd f0ad b03e
000001f0: 301f 3abe 7eff 4bbe d191 8f3e 3e00 513e
00000200: f95a 413d ef25 01be 24d8 7ebd 1bcf 87bc
00000210: c4c9 d8bc f03b a33e e6e9 453e 7bee 60be
00000220: 52c8 7abd 3c95 503e 1c7b b3bc 388e 8d3e
00000230: 439e a3bd 551d 7cbe 95eb 5fbd 345e b7bc
00000240: 922d 273e 93b1 00bc 2485 8a3e 6eac 913e
00000250: d5d0 b43c a57e 083e a64a 8a3e d281 85bd
00000260: 1a2e e1bc ebaf 50be f309 a4bd 2810 9c3c
00000270: c06a f23d fb46 cfbd 3bba ebbc 3002 9abe
00000280: 749a f8bc 0068 7a3e 22c3 11be c1f9 bfbd
00000290: e8bd 18be 6d84 fcbd adb0 fbbd 09e6 003e
000002a0: 46cd 47be 261f d4bd 2455 f5bd b390 2d3e
000002b0: 7979 9d3e ab97 0d3e c331 373e 3c52 0c3c
000002c0: 03b2 f7bd a9db b9be df47 81bc 6247 223e
000002d0: 8936 3d3e 01b8 14be c138 443c 742d 08bd
000002e0: 46ab 8b3e 590d a13d d7ca c2bd b03d 323c
000002f0: ed85 c3bd b30f 9ebe a39d 8ebe 44f5 c7bd
00000300: ae98 80be 5a32 c3bc f88a 8b3b f972 d1bd
00000310: 8256 6abb 5175 b2bd cc32 e93e efdb 4fbe
00000320: e656 14be 459f 633e b186 6b3e d595 b7be
00000330: 602c 84be 0556 f5bb 8083 8dbe 8b34 a9bd
00000340: 7f6c db3d c536 b03e fb71 16bc dba8 0dbd
00000350: 017e ef3d b276 4bbd 2f97 623d cae0 0dbc
00000360: 5542 ad3d 4ffb 4d3c 5c0e 97be 3982 ae3e
00000370: 340a f53c 2cd3 18bc a998 61be 6b6f 87be
00000380: 0512 8f3e 8693 07be 185c 903c 08b0 f5bd
00000390: f6af 31be 6f4f 9c3e d5ca 01bd 66eb 81be
000003a0: 1ae2 893e 1bfd d33d 4e5f 633e f350 9fbe
000003b0: 70d9 283c 571b 07be 958a 9d3d 872c 4b3c
000003c0: 4cd3 26bd 2641 c0bd 0f73 d63d b7cd 263e
000003d0: 86e3 8ebd d07b cd3d 6ae9 ee3d dd00 833e
000003e0: 1425 ff3d f05b 8abd 4d88 8fbd 8b03 de3d
000003f0: 59e5 6b3c cd28 a1be d83c d13d cd12 763e
0.24817584 -0.04570954 -0.22051336 -0.24677311 -0.07011572 -0.0018190822 0.035714995 0.12197389
-0.26607323 0.21670091 -0.05695616 -0.022050671 -0.13792557 0.11704759 0.02229769 0.06310513
-0.20763256 -0.18542206 -0.21262695 -0.33991787 0.14951937 0.04933382 -0.17703749 -0.24915867
0.09371717 0.30680633 -0.30900475 -0.0046040323 -0.14605583 -0.19806547 -0.11935037 0.14598654
0.14909936 0.017561829 -0.21564105 -0.024910465 -0.13983488 -0.021272691 0.18083622 0.025509052
-0.19724183 -0.14599212 -0.13230942 0.07289985 0.16655482 0.009659377 -0.11248853 -0.15161003
0.20665781 -0.10936214 -0.1429066 -0.086008966 -0.1479415 0.0776532 -0.2565406 0.14869423
0.26006025 -0.22189105 0.12256518 0.1264569 0.28002092 -0.10410923 -0.014260072 -0.17494325
0.013853175 0.08069391 0.13946736 -0.077841975 -0.18652964 -0.009697926 -0.13547397 0.07614778
0.14082238 0.02589605 -0.23674564 -0.19801162 -0.011693073 0.26378518 0.083344966 0.15981318
-0.032715887 0.10648693 0.25848523 -0.29570597 -0.16714345 0.08688323 0.04685502 -0.086720735
0.097616814 -0.15495482 -0.18645743 0.07282409 -0.076271 -0.10789081 0.031450287 -0.03886553
-0.014662914 -0.06197238 0.2450019 -0.14302912 0.21698004 0.13978676 0.12645647 0.039775684
-0.12789698 -0.02964272 -0.20237362 0.2917786 0.14304303 -0.085016355 -0.0924937 0.09771125
0.32383794 -0.18930699 -0.22017159 -0.052737817 -0.15775217 -0.20724812 -0.20962448 0.018241832
0.21011041 0.166366 -0.10014826 0.34507704 -0.1817596 -0.19921681 0.28040937 0.20410249
0.0472059 -0.12612127 -0.062217847 -0.016578248 -0.026463397 0.31881666 0.19327506 -0.21965973
-0.061226197 0.20369428 -0.021909289 0.27647567 -0.079891704 -0.24620564 -0.054668028 -0.022383787
0.16325977 -0.007854837 0.27054703 0.28451866 0.022072235 0.13329561 0.27010077 -0.06518902
-0.027487803 -0.20379607 -0.0800971 0.019050673 0.11836767 -0.1012096 -0.028775325 -0.30079794
-0.030347086 0.24453735 -0.14234594 -0.09373809 -0.14916193 -0.12329946 -0.122895576 0.12587751
-0.195119 -0.103575036 -0.1197913 0.1694973 0.3075674 0.13827388 0.17890076 0.008564528
-0.120945 -0.363004 -0.015781341 0.15847543 0.18477835 -0.14523317 0.011976422 -0.033246472
0.2727911 0.07863874 -0.09511345 0.010878965 -0.09547029 -0.30871353 -0.27854642 -0.097635776
-0.25116485 -0.02382772 0.0042585097 -0.102270074 -0.003575713 -0.087137826 0.45546567 -0.20298742
-0.14486274 0.22228725 0.230006 -0.358565 -0.25815105 -0.007487061 -0.2763939 -0.08261975
0.10714053 0.34416786 -0.0091824485 -0.03458486 0.11693955 -0.049673744 0.05531996 -0.008659551
0.084599175 0.012572124 -0.29503143 0.34083727 0.029912092 -0.009327691 -0.22030891 -0.26452193
0.27943435 -0.1323987 0.017622039 -0.11996466 -0.1735228 0.30529353 -0.031687576 -0.25374907
0.26930314 0.103510104 0.22204325 -0.31116447 0.010305747 -0.13194023 0.07692448 0.012400753
-0.040728852 -0.09387426 0.104711644 0.16289411 -0.069769904 0.10033381 0.11665614 0.25586596
0.12458244 -0.06755817 -0.07008419 0.108405195 0.014397942 -0.3147644 0.10216683 0.2403061

linear2.weight f4 [3, 256]
00000000: 1543 223e d186 41bd 6239 b2be 02f3 463d
00000010: efe6 86be 9b3d 54be 9f3f 15bd e44c 9d3c
00000020: b8d6 5dbc 802c e43d 6da7 0a3e 01d8 65bd
00000030: 14eb 273e a061 fa3d f8b3 703d 035c 183d
00000040: 70e7 42be 7e7b 523d bf30 d4bc 8295 6bbe
00000050: dca3 26bd adda 153d aa26 e6bd 9190 99ba
00000060: e7f6 a7bd 01df 403e 7ccf 1bbd 884b b5bd
00000070: 5d3d 46bd 59a2 17be 129a 89be b8f9 4f3e
00000080: 1373 863d 4e8f 213d 8dd4 8bbe f3cd c2bd
00000090: c36f 37be 517f 76be 1997 e03d d56c 693d
000000a0: f37f 13be 8c29 613d 463b f7bd a77c d2bd
000000b0: d2d5 b7bc 9534 4e3e 9484 07bc 3600 0bbd
000000c0: 2124 be3a 865a c8be 9535 f4bd cfc5 163e
000000d0: 253c b3be 33d2 723e ad25 013c 6cc5 773e
000000e0: b809 233d 55f1 243c a07e d43d f975 083e
000000f0: 3c69 e53d 689a 6d3e 16ec 923d 87a5 c2be
00000100: a46a babd 3913 d9bd 274b 90bd 24f5 18be
00000110: 476c a5bc 94ff a4be 4ad9 c5bd 2eb3 ce3e
00000120: b13e 2a3e bf42 6ebe c547 26be 793a 223e
00000130: 29e2 94bc f5f2 cb3d ea8b a2bd b5f5 b2bc
00000140: ffa9 b6be 0c7f 7cbc 6f66 a23c 68f0 253c
00000150: a05f 9dbd 3e2b 1fbe 51ae 903e 4d34 debc
00000160: d060 413d 39ea 38bd faaa f23d 9972 fbbd
00000170: c4f0 a3bd 1b63 aebc c70b 6bbd 7d62 4ebe
00000180: 562f 88be 9f11 babe 952b d83d 37d2 efbd
00000190: cebc dc3c c2cd 97bd 96d8 d4bc 456f 083e
000001a0: f93c 253d 3816 24be 1d9c 21be d801 d53d
000001b0: 45ea b23d 9af9 2bbe 73a5 82bd 576b 0a3e
000001c0: 6604 3c3e 8e99 52bc b438 60be ccbc 24be
000001d0: 0162 a1be 437d 2e3e 3ce8 23be 5a97 b83d
000001e0: 0a44 db3d 3048 153e f3be 013e 810e 533e
000001f0: 5f8d 18be dd0d 163e c006 713e 9b4e ff3d
00000200: 0072 883e 3b5f 7bbd f101 473e a928 8d3e
00000210: ec51 51bd d3bf 513e 966e 233e 0b38 62be
00000220: a052 f6bc fe58 ac3c f19c 443e 7903 073d
00000230: 5a23 74be a2fd 3bbe bf59 a23d ebe1 09bd
00000240: 7ea7 cdbc 28c0 5bbe a24d 183e 5027 293e
00000250: cb71 20bf fe18 2a3d d1bd 0f3c d950 aabc
00000260: caaf 9b3d 2a3e 7dbd 02ab 0e3b 2c3a 46be
00000270: 269f cf3d 464e 44be cf34 57be e748 4bbc
00000280: bff2 1dbe 0501 4d3d b08d 143d e5c1 8bbe
00000290: 87cc 063e f9ef f4bc e1b7 55be 8c1f aa3d
000002a0: cf3b 76bb 08c2 a4be 85b8 04be a88c 92bd
000002b0: dfaa c03d c375 073e bbb4 11bd 6c59 4abc
000002c0: 2476 183e 5049 24bc 3085 41be 266b 7c3d
000002d0: 1f81 65bc 92f4 67be 68dd adbd b251 c4bd
000002e0: cd60 d53d b554 b5bc aa37 03bf 0dd7 cabd
000002f0: ffea 59be 3328 0e3e 822d 26be c92d abbe
00000300: fc18 793d 485c b93d 9a38 15bd 5e5f b9bd
00000310: 6093 b43c e5c7 9cbd 05a8 1d3e e434 f3bd
00000320: 482d 22be b37e 8f3e 4e82 dcbc 6c24 b2bc
00000330: bccd a4bc 119a 1bbe bd09 043d 1704 573e
00000340: 8061 b4bd 9c16 8a3e 426b 8abe e120 67bd
00000350: b905 d4bd 9b28 8a3e 295b efbc f47d 3ebe
00000360: 011a 36bd 3d65 f6bd 86d2 9cbc 0aeb c03e
00000370: c7b1 eebd c13f c7be 119c efbb 37df 2fbe
00000380: ca28 2d3e 14b4 55be f265 d7bd 2789 bdbb
00000390: affc 62be 3cd2 853e 7878 08be 30de 153e
000003a0: eb15 0a3e e584 f13d b6c0 6e3d 5e89 52be
000003b0: ac81 b13d ed91 29bd 1d09 ab3d 7494 7cbe
000003c0: 4aae 06be 7d7d 23be 1ebe 6f3e 8749 3ebc
000003d0: 8642 dbbd 5173 e1bd 4fd7 afbd b712 06bd
000003e0: 2a3d 06be b5aa 91bd c89a 36be 201c 67bd
000003f0: 500a 65be 50da 5bbe d8ee 80bd 4a98 283e
0.15845902 -0.04724771 -0.34809405 0.048571594 -0.26348063 -0.20726626 -0.036437627 0.019201703
-0.0135399625 0.111413 0.1354043 -0.0561142 0.16398269 0.12225652 0.05876538 0.037197124
-0.19033599 0.051387303 -0.02590215 -0.23006251 -0.040683612 0.0365855 -0.11237843 -0.0011716058
-0.0820139 0.18835069 -0.03803967 -0.08852297 -0.048398364 -0.14808024 -0.2687536 0.20310104
0.065649174 0.039443307 -0.273106 -0.09511938 -0.17913727 -0.24072005 0.109663196 0.056988556
-0.14404278 0.054971263 -0.120718524 -0.10277682 -0.022440825 0.20137246 -0.008271355 -0.033935748
0.0014506617 -0.39131564 -0.119242825 0.14723895 -0.35006824 0.23712997 0.007882518 0.24196404
0.03980419 0.010067304 0.10375714 0.13326253 0.112017125 0.23203433 0.07173936 -0.38016912
-0.09102371 -0.105993696 -0.07045584 -0.14937264 -0.020193232 -0.3222624 -0.09660585 0.40371078
0.16625477 -0.23267649 -0.16238315 0.15842618 -0.018174248 0.0995845 -0.07936843 -0.021845678
-0.35676572 -0.01541115 0.019824235 0.010128118 -0.07684255 -0.1554384 0.28257993 -0.027124548
0.04721147 -0.045145247 0.118490174 -0.12277717 -0.08004907 -0.021287492 -0.05738428 -0.20154758
-0.26598614 -0.3634157 0.105551876 -0.11710017 0.026945498 -0.07412292 -0.025982182 0.13323696
0.04034135 -0.16024101 -0.15782209 0.10400742 0.087360896 -0.16794434 -0.06379213 0.1351751
0.18361053 -0.012853993 -0.2189663 -0.16087645 -0.31520084 0.17039971 -0.16006559 0.09013243
0.10706337 0.14578319 0.12670498 0.20611002 -0.14897679 0.14653726 0.23537731 0.12466165
0.26649475 -0.061370116 0.19434334 0.27570084 -0.051103517 0.20483331 0.15960154 -0.22091691
-0.030068696 0.021038529 0.19200493 0.032962296 -0.2384161 -0.18358472 0.07927274 -0.033662718
-0.02510428 -0.2146002 0.14873365 0.16518903 -0.62673634 0.04152774 0.008773283 -0.020790504
0.076018885 -0.061826862 0.002176941 -0.19358128 0.10137777 -0.19170484 -0.21016239 -0.012407518
-0.15424632 0.0500498 0.036267936 -0.27296367 0.13163958 -0.029899584 -0.20870925 0.08306798
-0.003757227 -0.32179284 -0.12961014 -0.07155734 0.09407591 0.13228516 -0.03557275 -0.012350421
0.14888817 -0.010027245 -0.18898463 0.061625622 -0.014007836 -0.2265189 -0.084894955 -0.09585895
0.10418854 -0.022135118 -0.5125681 -0.09904299 -0.2128105 0.13882522 -0.16228297 -0.3343337
0.060814843 0.090508044 -0.036430933 -0.09051393 0.02204293 -0.07655314 0.15396126 -0.118753225
-0.15837586 0.2802635 -0.026917603 -0.021745883 -0.020117633 -0.1519549 0.03223585 0.20997654
-0.08807659 0.26970375 -0.27034956 -0.05642784 -0.10352654 0.26984105 -0.029218273 -0.18602735
-0.044458393 -0.120310284 -0.019143354 0.3767932 -0.11655002 -0.38915828 -0.0073123057 -0.17174993
0.16910091 -0.20869476 -0.105174914 -0.005784172 -0.22166704 0.2613696 -0.13327205 0.14635539
0.13484924 0.11792926 0.058289252 -0.20560214 0.08667311 -0.04139893 0.083513476 -0.24666005
-0.13152424 -0.15965839 0.23412368 -0.01161421 -0.10706048 -0.11008323 -0.08585989 -0.03273269
-0.1310927 -0.07112638 -0.17832482 -0.056423306 -0.22367215 -0.21469998 -0.06295556 0.16464344

linear2.bias f4 [3]
00000000: 9050 8f3d 0de6 81bc 3249 fbbd
0.06997788 -0.015856767 -0.1226982
