model/model.pth (torch, 17216 bytes, 4 tensors)

linear1.weight f4 [256, 11]
00000000: f495 22bd 13ec 5e3d 3be5 b93d d14f 1c3e
00000010: 7211 073e 9ad0 82bd 72c2 6ebe fffe 93be
00000020: 9923 25bd 4e7f e43d 967d 50bd d60e 403e
00000030: f182 30be 03fc 2ebe 42b8 2d3e b559 1cbd
00000040: f0b8 6c3e ac2d 37be 3f6e b6bd ed2c 0b3e
00000050: 927d 72be cd1b 13be 9447 72be 6fbb 5a3c
00000060: 8b0c 52be ee86 953e 9f95 11be 7cec 20be
00000070: 696f 623e 10a6 5bbe 999d ffbc 50de e1bc
00000080: 4762 3fbe eeb0 5a3e 5fd1 dfbd 9616 bbbd
00000090: 2043 6fbc 8efd bfbd 17e7 2b3e 47b2 fdbd
000000a0: c8ca 2fbe f250 edbd 7209 33be 6d6a 3abe
000000b0: 5687 77be b045 84bd 10bb 363e f76b 8c3e
000000c0: 6679 d8bd 81d5 f1bd 791c 78bd d889 22bd
000000d0: 6182 833e 20a1 82be dabb 1c3e 030e ca3d
000000e0: c5d5 113e d7af 423e b0ea 9f3d 564b e9bd
000000f0: d8a5 52be 3a0c 2bbd 781d 413e f815 883e
00000100: b378 8abe a3f5 6b3e 5d9f 9c3e 46ee b0bd
00000110: f78d 783c 765e e93c 34cd c4bd 35dd 9ebd
00000120: d9a0 833e d811 79be 2cfc 093e d473 90be
00000130: 25e3 163e 1d14 fb3c 2a56 383e 9305 0c3e
00000140: e46a 343e a346 553e e19b 4cbe c877 aebc
00000150: f8d1 aabe c481 ecbd 85cb 063e 1045 1cbe
00000160: bb01 40be d184 583e 25c3 d33d 7652 e5bc
00000170: b940 163e 970f ddbd 27b4 dcbb d38b 77be
00000180: 9dc3 9e3d 7c91 923e 359a 1fbe deb3 423e
00000190: 8d74 873d 4edf eb3d 804d 723e 5ab2 6b3e
000001a0: 2028 b7bd cf2b 38be d563 a1be 6abe e33d
000001b0: a39c c83d 36a3 283e f9d9 623e 1a23 ccbd
000001c0: 8f03 fabd 3cea 913e 49d6 a1bc dbb7 07be
000001d0: e810 973e 4f8b 583e 6bb1 943e dd3e 7c3d
000001e0: ef10 3b3e c535 3abe 352f 3b3e 628a 77be
000001f0: 1bdd dcbc 5e47 773e 8ea2 6fbe 07d9 583d
00000200: 744c 28be 4d28 a4bd bfdd 833c 0647 df3d
00000210: bee3 6a3d 1e3d 1d3e f95a 3c3e 43bc 66bd
00000220: 7170 103d 1a32 de3a 7739 6d3e ffc6 95bd
00000230: 0001 05be 4f7f 8c3d c6e2 123e 8b43 d1bd
00000240: 9f79 fc3c 3a55 0f3d a0f7 653e 5f4a 763e
00000250: 7ea9 41be ff1b 633e 1420 a4be 35bd acbe
00000260: 0178 193e 9d67 b83d 026f 64be fc81 323d
00000270: 9aee c73e 39ce 7abd 226f 563e 354b 433c
00000280: c52f 883e 1755 82be b7c7 85be e67b 613e
00000290: 08cf 6a3d 61e2 9d3b 69a8 79bd 6fc2 01bd
000002a0: b329 7e3e 73f4 8cbe 100f e8bd 360d 2bbe
000002b0: fb50 06bd fbe2 183e aa54 3ebe 7a5a 01be
000002c0: 7caa e73d a90d 2c3e c547 72be 3e17 8c3d
000002d0: e1c9 44be 3f7c c3bd 56fd d03d 16ae 2c3e
000002e0: 0fd8 4a3e 74e2 783e 3e90 debc d85e 243d
000002f0: 28f6 a43e e660 86be 2dd5 893e 8dd1 8f3d
00000300: 93de a53d ed27 0abe 5204 d33d 6f9d 913e
00000310: 260a 81bd f4eb 5fbe b41c 45be b259 33bd
00000320: 84db 533e 9122 17be a9bb 94be 5bd3 d63d
00000330: 56ab adbd 2b27 b0bd 9b9a 063e 38b3 1dbd
00000340: 10ff 11bd dd55 323e 6a2a 53be 8d4d d9bd
00000350: 1f51 93be f230 5c3e d168 30be 9697 773e
00000360: b138 1e3e 8ffb e33d 7c01 bdbd 4a71 9e3e
00000370: a30c 3bbe 76ba 4a3e 999d 6c3e 85c5 5e3e
00000380: e86d 803e 8c3e aa3c f63a 7abe 0b93 17bc
00000390: 9d1b 61bd ad2c 75be f942 ef3d e7b5 253e
000003a0: 7ef2 923d c9a0 31be 00e9 75be 6c8a 473e
000003b0: 891b e73d bf31 d63d f928 2b3e 6618 9c3d
000003c0: a081 953d 5591 9a3e 3b89 8abd e485 3abd
000003d0: 4b25 373e 10c4 2f3e 6245 75be 3814 2d3d
000003e0: dc3a 4a3e c8de a1be bd51 733e d461 4dbe
000003f0: 7c9f 253d 1b6b 31be e898 95be a10a 0abe
-0.039693788 0.054424357 0.09076925 0.15264823 0.13190249 -0.06387444 -0.23316363 -0.28905484
-0.04031715 0.11157094 -0.050901018 0.1875566 -0.1723745 -0.17088322 0.1696482 -0.03817149
0.23117423 -0.17888516 -0.089077465 0.13591357 -0.23680714 -0.14366074 -0.23660117 0.013350352
-0.20512597 0.29204506 -0.14217232 -0.15715212 0.22112812 -0.21450067 -0.031203078 -0.027571827
-0.18689834 0.21356556 -0.10928606 -0.09135167 -0.014603406 -0.093745336 0.16787373 -0.12387519
-0.17167199 -0.11587705 -0.17484072 -0.1820466 -0.2417272 -0.06458604 0.17844796 0.2742612
-0.1057003 -0.11808301 -0.06057403 -0.03968224 0.2568541 -0.25513554 0.15306035 0.09865954
0.14241703 0.1901239 0.07808435 -0.11391322 -0.20571077 -0.041759707 0.18858898 0.2657926
-0.2704521 0.23042922 0.30590335 -0.08639197 0.015170566 0.028487425 -0.09609452 -0.07757036
0.25708655 -0.24323213 0.13475102 -0.2821337 0.14735086 0.03064924 0.18001619 0.13674001
0.176189 0.20827727 -0.19981338 -0.02129735 -0.33363318 -0.11548188 0.13163574 -0.1526072
-0.1875066 0.21144415 0.10339955 -0.027993422 0.14673127 -0.10793989 -0.006735343 -0.24174432
0.07752154 0.2862662 -0.15586169 0.19013926 0.06614027 0.11517201 0.23662376 0.23017254
-0.089432 -0.17985462 -0.31521478 0.11120303 0.09795501 0.1646851 0.22153462 -0.099676326
-0.1220771 0.2849902 -0.0197555 -0.13253729 0.29505086 0.21146892 0.2904161 0.06158339
0.18268178 -0.18184574 0.18279727 -0.24173883 -0.0269609 0.24148318 -0.23401853 0.05294135
-0.16435415 -0.08015499 0.016096948 0.109022185 0.057346098 0.15355346 0.18394078 -0.056331884
0.035263482 0.0016952187 0.23166452 -0.07313346 -0.12988663 0.0686022 0.1434432 -0.10217961
0.030819712 0.034993388 0.22457743 0.24051808 -0.18912312 0.22178648 -0.32055724 -0.33738104
0.14987184 0.09004138 -0.22307971 0.043580994 0.39049226 -0.061231826 0.20940831 0.011919786
0.26598945 -0.25455543 -0.26128933 0.2201992 0.057326347 0.0048182462 -0.060951624 -0.031679567
0.24820594 -0.2753025 -0.11330998 -0.16704258 -0.032792073 0.14930336 -0.18586984 -0.1263217
0.11311814 0.16802086 -0.2366019 0.068403706 -0.19217636 -0.095451824 0.1020457 0.16863284
0.19808982 0.24305135 -0.02716839 0.040129513 0.32219052 -0.26245803 0.26920453 0.070223905
0.08099093 -0.13491793 0.103035584 0.28440425 -0.06300764 -0.21867353 -0.1924923 -0.043786712
0.20689207 -0.1475928 -0.29049423 0.104895316 -0.08479945 -0.08601221 0.13144915 -0.038500994
-0.035643637 0.17415567 -0.20621648 -0.10610495 -0.28772828 0.21503046 -0.17227484 0.24178919
0.15451314 0.11131965 -0.09228799 0.30945808 -0.1826654 0.19797692 0.23106994 0.21755035
0.25083852 0.020781778 -0.24436554 -0.009251366 -0.054957975 -0.23942824 0.11682696 0.16182671
0.07175158 -0.17346491 -0.24014664 0.19486398 0.11284549 0.10458707 0.16714849 0.07621841
0.07300115 0.30189005 -0.06764456 -0.045537844 0.1788532 0.17164636 -0.23952249 0.04225561
0.19749016 -0.3161528 0.2376165 -0.2005685 0.0404353 -0.17326014 -0.2921822 -0.13480617

linear1.bias f4 [256]
00000000: f743 f7bd f4c1 15be 424d 323d 2f6b bfbd
00000010: 3763 3d3d 2a79 083e 01ae 313e 9980 38be
00000020: 9c6a 523e 2a40 b1be a192 5d3e 8a13 8d3c
00000030: 3987 d23d f2c8 1dbd 7808 283d f544 1cbe
00000040: dfa7 793e 6029 0cbe f64d aabe 2088 963e
00000050: 0f94 a8be c9d4 30be 06c4 8c3e 5f09 88be
00000060: cc81 483e ed91 b5bd e73d 8b3e 5c46 f5bd
00000070: 4625 743c 7ae4 7a3d f324 93bc b6ab 2c3e
00000080: 167a 21be d307 0cbe d5e1 843e f2d9 9cbe
00000090: c25b a8bd 0e5a 37be 39aa fabd 59d2 5cbe
000000a0: e4c0 ac3e f57f 023e 3178 14be cdb0 c13d
000000b0: 8a84 843e 4a42 e4bd 1591 64be 1ed4 24be
000000c0: caf9 ea3d 15ec 9e3d 67c9 13be 4d0c a0be
000000d0: 3c0b 523e e37f 58be 3291 97be 41bc a13e
000000e0: 9ba4 ce3d 482d 783d dc8a aebd f87c 673e
000000f0: 6b6c 51bc fa85 b43e a5e6 bf3e eb66 65bd
00000100: 0bfd 19be 8226 bb3d c012 ba3e 9e23 f13d
00000110: f09b 9c3d 2f25 6f3e 5ed0 123e 0ea0 e4bc
00000120: a08b b9bd 0e4d 773d 421a 903e c7a5 c43e
00000130: 2d80 7f3e 3728 6dbe 505b 91bd 769c 0f3e
00000140: 9043 323e 652a 1bbe 7b35 19bd 9c08 41be
00000150: 561c 213e b7ff 863e 5797 7dbe c6b6 413e
00000160: d343 a13e 95c7 2dbe 3ff6 96be a37a 163e
00000170: d3b5 b53e 26d9 ecbd 7a3e 36bc ce75 31be
00000180: 4353 813d a02c 493e 19ee 55be 8bd2 83be
00000190: d249 f63d 11c2 f3bd c9c0 883e cdda a3bc
000001a0: 64b6 55be ad98 3e3e 4908 7cbe 65d7 e23d
000001b0: d5b6 083e ec06 973d c4bf 8cbd 5700 233e
000001c0: 3e7f ec3d 20ee 25be fac6 423e 5484 5bbe
000001d0: 374f 333e 3af1 5ebd 25d9 983e 2afe dabd
000001e0: 1c1a b7bd 0907 21be 5c22 8a3e 5ee0 46be
000001f0: 872a b23d ed68 92bd fb28 e3bc 0676 23bc
00000200: 657a 963d 48e2 ea3d 0147 72be 9f6c 79be
00000210: d3b9 893d 5a22 703e 733e 71be 6058 123e
00000220: faec 0cbe a5f9 8abd 4485 3e3e 3a48 833e
00000230: d0f5 0cbe 1670 c63d dcc8 66bd 155f 803d
00000240: 0ac8 533d ad04 c8bd 6002 98be 5ca3 373e
00000250: 27e3 97bd 14d5 d9bd f5df 1abe 053d 8a3c
00000260: ee40 873e 4be9 ed3d b092 1abe 7dc1 babd
00000270: 8dca 093e 6a86 843e 902f 31be 5d15 58be
00000280: b4f7 a73e c024 a33e ec40 73bd 4434 b03e
00000290: a727 863e d55f 233d 854d c63d e028 9fbd
000002a0: 4d6c 033e 6251 70bb 810e a93d 3c4c 853b
000002b0: 69cf 7dbe c3ae 16be d910 963e b13f 113e
000002c0: 595c 813e a443 5bbe e3b0 4e3e ee24 ab3d
000002d0: 3884 203d 92d3 103d f2d3 773e b7d1 e33d
000002e0: a4cf 0f3e a978 98bd e068 503e 62e9 49be
000002f0: 300b 003e 4bcc b03d c1b5 bbbd 2fa3 3ebe
00000300: 562e d9bd 309f b43e eb4c 8dbe 166a 2e3b
00000310: 17d1 bbbd dae8 083e 3cd3 debb 6c2d 5b3d
00000320: c66b bf3e f4a8 6ebe 6509 23bd 73d0 99bc
00000330: 744c 723e 2272 30bd 814a 0d3e fbe1 5fbe
00000340: 31ce 5fbe 46c2 293e 4013 ab3d e3f8 273e
00000350: dee3 963e 94a5 79bc 465e c0bd e217 a43d
00000360: 80c5 e2b7 6c3d ac3e 9ca6 5d3e c5c7 27be
00000370: c3d7 9c3e 5bab 72be e67f a0bd e046 3a3e
00000380: 03cc a63e 1f94 61be c6aa 88bd 379c 58be
00000390: 265a 9abc 0295 af3e c851 1c3e 0e58 19be
000003a0: b03c 5c3e 64e3 493d 580a 5bbd 4df2 85be
000003b0: 27ab 553e 97da 15be 35c9 153e c800 473e
000003c0: 2d74 18be c71b 5fbe d405 81be c85e 4a3e
000003d0: f8f4 b33e 6bae 53bd 5258 a3be 5b8a dcbd
000003e0: de5f 43bd a217 363e 70b3 c83d 1cf7 263d
000003f0: 3565 5ebe 943b da3d e3ff 8cbe 881a 41be
-0.1207351 -0.14624768 0.04353071 -0.093466155 0.046237197 0.1332747 0.17351533 -0.18017806
0.20548481 -0.34619266 0.21637966 0.017221231 0.10279698 -0.038521715 0.0410237 -0.1526068
0.24380444 -0.13687658 -0.33262604 0.2940073 -0.3292546 -0.17268671 0.27493304 -0.2656965
0.19580764 -0.08865724 0.27195665 -0.119763106 0.014901465 0.06125305 -0.017961955 0.16862378
-0.15769228 -0.1367486 0.25953546 -0.3063503 -0.082206264 -0.17905447 -0.12239499 -0.21564616
0.33740914 0.12744124 -0.14498974 0.0945755 0.2588237 -0.11145456 -0.2232097 -0.16096541
0.11473425 0.07759873 -0.14432298 -0.31259385 0.20512098 -0.21142535 -0.29602963 0.3158894
0.1008999 0.06059006 -0.08522579 0.22606266 -0.0127821965 0.35258466 0.37480655 -0.056006353
-0.15037934 0.09138204 0.3634243 0.117743716 0.0764693 0.23354028 0.14337298 -0.027908351
-0.090598345 0.06037622 0.28145033 0.38407728 0.24951239 -0.23159872 -0.070974946 0.14024529
0.17408586 -0.15152891 -0.03740452 -0.1885094 0.15733466 0.2636697 -0.24764763 0.18917379
0.31497058 -0.16970666 -0.29484746 0.1469522 0.35490283 -0.11564855 -0.011123294 -0.17330095
0.06314709 0.1964593 -0.20891608 -0.2574657 0.12025799 -0.119022496 0.26709583 -0.020001793
-0.20870358 0.18612929 -0.24612536 0.110762395 0.13350995 0.07374367 -0.06872514 0.15918098
0.11547707 -0.16204119 0.19021216 -0.21437198 0.17510687 -0.05442927 0.29853168 -0.10693009
-0.08940527 -0.1572534 0.2697934 -0.19421527 0.08699518 -0.07148919 -0.027729502 -0.009976869
0.07347564 0.11468941 -0.23659898 -0.24357842 0.06724896 0.23450604 -0.23558979 0.14291525
-0.13762274 -0.06785897 0.18605524 0.25641042 -0.13765645 0.096893474 -0.0563439 0.062681355
0.051704444 -0.09766517 -0.29689312 0.1793341 -0.07416373 -0.106363446 -0.15124495 0.0168748
0.26416725 0.11616763 -0.1509502 -0.09118936 0.13456173 0.258838 -0.173033 -0.211019
0.3280617 0.31863976 -0.059388086 0.34414876 0.26202127 0.039886314 0.096827544 -0.07771468
0.12834282 -0.0036669602 0.082547195 0.0040679257 -0.24786152 -0.14715104 0.2930973 0.14184453
0.25265768 -0.21412522 0.20184664 0.08356653 0.039188594 0.03535802 0.24201944 0.11123984
0.14044052 -0.07444889 0.20352507 -0.19717935 0.12504268 0.08632716 -0.09165526 -0.18616937
-0.10604541 0.352777 -0.27597746 0.0026613525 -0.0917074 0.13370076 -0.0068000834 0.053510115
0.37386912 -0.23306638 -0.03980388 -0.018776154 0.23661977 -0.043077596 0.13797952 -0.21863548
-0.21856 0.16578016 0.08353281 0.16403536 0.29470724 -0.015237231 -0.09392981 0.08012368
-2.7033268e-05 0.3364061 0.21645588 -0.163848 0.30633363 -0.2369818 -0.07836895 0.18191099
0.32577524 -0.2202916 -0.066731974 -0.21153341 -0.018841814 0.3429337 0.15265572 -0.14974996
0.21507525 0.049289122 -0.05347666 -0.26161423 0.2086607 -0.14634167 0.14627536 0.19433892
-0.14888068 -0.2178794 -0.2519976 0.19762719 0.35147834 -0.05168001 -0.3190332 -0.10768577
-0.047698848 0.17782453 0.0979985 0.040763006 -0.21718295 0.10655895 -0.27538976 -0.18857777

linear2.weight f4 [3, 256]
00000000: 482d 74bd ac2f f9bd 908a f0bc 4c05 bc3b
00000010: ab79 2838 4c93 82bc c4b4 91bd 852b 9fbd
00000020: f258 29bd f3e5 513c 375e 07be 137e c73c
00000030: f744 afbd 325c 34be b67f 5fbd 3037 94bc
00000040: 8f6e b1bd 3201 8abc dffe e1bc f979 f4bd
00000050: 3b0e 84bd de70 86bd 9406 a7bd 3664 303c
00000060: ac84 00bd 9f5f 443c 48b3 aabc 16c1 80bc
00000070: a875 9bbc 0cb4 2a3d 8639 653c 51c9 6f3c
00000080: 2016 30bd 8f6c f33b 2375 b5bd c675 2e3d
00000090: bdf6 4abd ef8b 2fbc fb26 f3bd b0f4 c0bc
000000a0: 5cc6 07be 8856 82bd fb83 67bd 6d85 c5bc
000000b0: b946 0d3d 8503 0f3d 7889 9cbc 92fe fa3c
000000c0: dde3 36bd 7978 3fbd 744e dabd 55e2 0c3c
000000d0: 4a83 c13c d70c c3bd 82ef acb8 53cb bfbd
000000e0: 8927 903b a771 2d3d adfe b03d d8fc febd
000000f0: e429 c33c 6ec6 94bc 01da 84bd a462 4b3d
00000100: f29f 82bd 7683 c3bc 438c 01be 6c45 073c
00000110: 2143 d53c 55d6 6c3c cb02 39bc 2733 91bd
00000120: c20a d1bc 37e7 4e3c 1dd8 3bbd e569 b0bd
00000130: d3da 013c 3085 b0bd d5f5 5d3c c039 cbbc
00000140: 2d56 0b3d a2d2 bc39 84b7 86bc 1d1a fbbd
00000150: d38f 61bd 5f01 e13c d68b 78bd fc57 04be
00000160: 73c0 09bd d07a 98bd 74c2 af3c 98ee 50bd
00000170: 7202 23bd c204 afbd ad07 92bd 8437 51bd
00000180: 7f79 b7bc f7cf 04bb a5a9 0f3b 7687 34bd
00000190: 89c4 97bd 0e69 3dbc 9f3c aebc c311 bbbc
000001a0: eecb 6f3d 6ae6 81bd eaf1 e73c 56b5 663d
000001b0: 52be aebb f290 8ebd 7a79 f5bb e866 a1bd
000001c0: bcac b93c f000 803c 5fdb 96bd 677d f4bc
000001d0: bcfa d2bc 1b06 56be a1a1 b8bd b089 e73c
000001e0: 41ee 2cbd 809b b8bd c0ef 86bd e49e ea3c
000001f0: 0537 eabd 16e3 023e 1292 2d3d 757b fb3c
00000200: 0591 afbd c3e5 a53d bc9a 353d b8c5 0d3d
00000210: 10fd 8abd 4527 b3bd 5b69 e03c f34b d3bd
00000220: 7de5 1bbd 10ef 8e3b c953 293d 2000 0dbd
00000230: 8503 4a3d c132 6f3c fe20 71bd 01de 82bd
00000240: aee3 b8ba 7372 bebd 014c 11bd cf92 1bbd
00000250: 797b 13bd 4787 f23d 5c63 2ebc bc30 5ebd
00000260: de33 d6bd f248 beba 910f 5bbd cdbc 68bd
00000270: dfb9 adbd a7a1 bebc 5c1b 28bc 2f13 913c
00000280: ba45 61bd e67d 8fbd de5e c7bc 2674 9abd
00000290: d404 d6bd af72 98bd bb0f 603b 408c 053c
000002a0: 5866 22bb dc18 b9bc 10aa 333a e7bf 043c
000002b0: 6d51 a9bc 2fa4 39bd 7967 49bd cb8c 9fbc
000002c0: 637f c13c b069 56bd 120d 07bd 26f5 ccbc
000002d0: 77f0 10bc 1020 fabc 5022 0abe 1f64 343d
000002e0: 46f8 1a3d 4a93 8fbd 162f 5ebc fc7d c33c
000002f0: efa9 02be ab8e 423c 3f2f 1a3d 90e1 f7bc
00000300: 1250 3e3d eb65 74bd 7b8e 5bbc 1cdf c4bd
00000310: 3cdb c0bc 9e4e 8a3b 30e8 94bd 25aa 0abd
00000320: 5934 2f3d f57b 4ebc ee65 863d 900c 50bd
00000330: 7f10 103d 06b4 3fbd c422 aabd 8fdf 093c
00000340: e4ba 6bbc 3b4f 4f3d c3b5 e0bc aed8 c6bd
00000350: 04cf acbd 3176 e7bd 207f 733d 7ccc 443c
00000360: ff98 88bd ab48 72bd 7dc5 e4bd 5910 a2bd
00000370: d84d 44bd e5a4 a13d 9d0e 61bc 8594 a5bd
00000380: c66a cfbd d2df 95bd 6537 cabc 3678 54bb
00000390: 7825 2a3d 9b1d d0bd def4 ccbb 9dae 0abc
000003a0: 0d3f 2abd 8a93 36bd 0ea0 9dbc 938e 92bd
000003b0: 637c 8dbc 2876 ad3c 51a5 bfbb c46d 0f3c
000003c0: 9c35 b9bd 6d21 b3bc 929e 8c3c 860a 14bd
000003d0: 483d 913c a8f5 f639 968a 0fbd 777a 653d
000003e0: e4e0 4cbd c2ed d1bd 14df 70bc 002f 333c
000003f0: 15c0 313b 4659 acbd 8050 b9bc d59c 7ebd
-0.059613496 -0.12167296 -0.029362947 0.005737936 4.0167633e-05 -0.015939377 -0.071145564 -0.077719726
-0.04134459 0.012811172 -0.13219534 0.024352109 -0.08558076 -0.17613295 -0.054565154 -0.018092722
-0.086636655 -0.016846273 -0.027587352 -0.11937327 -0.06448027 -0.065644965 -0.081555516 0.01076608
-0.031376526 0.0119856885 -0.020837441 -0.01571707 -0.018977001 0.041675612 0.013990765 0.0146354
-0.04298985 0.0074287127 -0.08860233 0.042592786 -0.049551714 -0.010714515 -0.11872669 -0.023554176
-0.13259262 -0.06364161 -0.05652235 -0.024111474 0.034491275 0.034915466 -0.019108519 0.030638967
-0.0446509 -0.04674575 -0.10659495 0.008598884 0.023622174 -0.095239334 -8.246211e-05 -0.09364953
0.004399244 0.042344715 0.086423256 -0.1245057 0.023823686 -0.018161025 -0.064868934 0.049654618
-0.063781634 -0.023866396 -0.12651162 0.008256298 0.026032986 0.014455398 -0.01129217 -0.07089835
-0.025517825 0.012628368 -0.0458604 -0.08613948 0.007925707 -0.086191535 0.01354738 -0.02480781
0.03401773 0.00036015088 -0.016444929 -0.1226084 -0.055068802 0.027466474 -0.060680233 -0.12924188
-0.0336308 -0.074452996 0.021455027 -0.05100879 -0.039797254 -0.08545829 -0.0713037 -0.051078334
-0.022396801 -0.0020265558 0.0021921184 -0.044074498 -0.07410533 -0.0115606915 -0.02126914 -0.022835618
0.058544092 -0.06342776 0.028313596 0.05632528 -0.0053327465 -0.0696124 -0.007491288 -0.07880956
0.022665374 0.015625447 -0.073660605 -0.029844953 -0.025754325 -0.20900767 -0.09015203 0.028263897
-0.042219404 -0.09014034 -0.065886974 0.028640218 -0.114362754 0.12781939 0.04237563 0.030698517
-0.08572582 0.08100464 0.04433702 0.034612387 -0.06786549 -0.087477244 0.027393987 -0.103172205
-0.038060654 0.0043619946 0.04133967 -0.034423947 0.049319763 0.014599503 -0.058869354 -0.0639
-0.001410594 -0.09299173 -0.035472874 -0.037981804 -0.036006425 0.11842208 -0.010643806 -0.054245695
-0.10459112 -0.0014517589 -0.053481642 -0.05682068 -0.08482718 -0.023270441 -0.010260429 0.017709343
-0.054998137 -0.07006435 -0.024337228 -0.07541685 -0.1045014 -0.07443749 0.0034189064 0.008151114
-0.002478024 -0.022594862 0.00068536494 0.008102394 -0.02066871 -0.045322593 -0.049170945 -0.019476315
0.023620313 -0.052346885 -0.03297145 -0.02501924 -0.008846394 -0.030532867 -0.13489652 0.044040795
0.03783443 -0.07010515 -0.013561031 0.023863785 -0.12760137 0.011874835 0.037642714 -0.030258924
0.04646308 -0.05966751 -0.013400669 -0.09612867 -0.02354204 0.0042207977 -0.07270849 -0.03385367
0.042774532 -0.012602796 0.0656241 -0.05079323 0.035171982 -0.046802543 -0.08307412 0.008415117
-0.01438782 0.05061267 -0.02743042 -0.09709297 -0.084379226 -0.1130184 0.059447408 0.0120116435
-0.06669807 -0.059151333 -0.111704804 -0.07913274 -0.0479258 0.07892779 -0.013736394 -0.080849685
-0.10127787 -0.07318081 -0.024684617 -0.0032420284 0.04153964 -0.10161897 -0.0062547764 -0.008464483
-0.041564036 -0.044574298 -0.01924136 -0.071561 -0.017271226 0.021174505 -0.0058485647 0.0087541975
-0.09043428 -0.021866525 0.017165456 -0.03614285 0.017729416 0.00047103805 -0.035044275 0.056024995
-0.05001916 -0.10250427 -0.0147016235 0.010936499 0.0027122546 -0.08415465 -0.022621393 -0.062161285

linear2.bias f4 [3]
00000000: 87f7 a9bd fbb5 9dbc 8ef4 31bd
-0.08299165 -0.019251814 -0.043446116
